model/model_1.pt (torch, 459212 bytes, 24 tensors)

encoder.0.0.weight f4 [64, 1, 3, 3]
000000 86 e4 19 3e ea 55 b3 bc 66 13 71 bc 1e 92 c9 3d
       0.15028581 -0.021891553 -0.014714098 0.09842323
000010 e2 c4 f6 bc bc d8 59 3e ca b6 17 be 5f 2e a3 be
       -0.030123178 0.21274084 -0.14815822 -0.31871316
000020 18 7e ab 3d be 13 2b be 11 6a c0 bd d4 b9 c6 bd
       0.0837366 -0.1670675 -0.093952306 -0.09703413
000030 2b 46 9f be f1 ed 7b be 21 e6 9f be 87 d9 95 be
       -0.3110822 -0.24602486 -0.31230262 -0.29267523
000040 92 0c 10 3e 40 c1 24 bd 4d ba e1 bd 0b 69 52 be
       0.14067295 -0.04022336 -0.11021862 -0.20547883
000050 07 8a 80 3e dc 89 c4 3d d0 9d 8c 3e 7a f1 0c be
       0.25105307 0.09596607 0.2746415 -0.13763991
000060 64 64 42 3d b5 c2 82 3e 25 98 bb bc 92 ae dd 3d
       0.04745902 0.25539175 -0.022899697 0.10824312
000070 83 84 15 3e 44 0c 98 be 66 dc d5 3d a9 3f 0f be
       0.1460133 -0.29696858 0.10442428 -0.13989128
000080 76 05 b4 3d 28 90 84 3d 95 4c 32 3e 59 c0 0b be
       0.08790104 0.06472808 0.17412026 -0.13647594
000090 1d ce c5 bd 08 a1 a6 be 18 6d 6e bb ef cd 1b be
       -0.096584536 -0.32544732 -0.0036380943 -0.15215276
0000a0 4b 63 ea 3c 75 d5 09 be 9d a2 98 3e 10 9e da 3d
       0.0286118 -0.13460334 0.29811564 0.10674679
0000b0 4d 67 ce bd 6b fb 1d 3e f1 86 41 bc 0b 25 2a 3e
       -0.10078297 0.1542794 -0.011811958 0.16615693
0000c0 e6 f0 17 be c0 c7 73 3e ab 44 8b 3e a3 ad c6 bd
       -0.14837989 0.23806667 0.27200827 -0.09701087
0000d0 7e ae 91 3d 19 88 4b be dc 9d 68 3e 14 4a 9c be
       0.0711336 -0.19876136 0.22716469 -0.30525267
0000e0 e7 20 8d 3e 0b d1 7f 3e 58 cf 70 be 7e f1 c8 bd
       0.27564165 0.24982087 -0.23516595 -0.09811686
0000f0 ec 0d 61 3d 7f 66 16 3d 71 df 7b 3e 67 29 e4 bd
       0.054944918 0.03671884 0.24596955 -0.11140709
000100 b8 6c 58 3e 07 95 f7 bd 25 32 56 3e 94 ea 18 bd
       0.21135223 -0.120889716 0.20917566 -0.037333086
000110 fe 6f 8b be dd ce e2 bd a1 0b 9c be be c0 98 be
       -0.2723388 -0.11074612 -0.30477622 -0.2983455
000120 61 02 8d 3e 3b 6e d8 3c c3 8c 7d 3e b6 41 24 3c
       0.27540877 0.02641975 0.24760728 0.010025432
000130 18 02 9c 3e 2b 28 98 be 99 6e 42 be f8 e4 ea bd
       0.30470347 -0.29718146 -0.18987502 -0.114694536
000140 53 9d 28 bd 81 89 96 bd 0a d1 36 3d 42 1c bd bd
       -0.04116566 -0.073504455 0.04463295 -0.092339054
000150 2c c4 40 be dd d8 c9 bc b3 56 8d 3e c6 bb 91 be
       -0.18824834 -0.024639541 0.2760521 -0.28463572
000160 a1 a9 c7 bd d7 5b 08 be 46 6a 9a bd a7 8c 74 bd
       -0.09749151 -0.13316284 -0.07539801 -0.05970445
000170 2e 86 45 3e 33 c9 85 bd 1c 4a e9 bd 64 6c bf 3d
       0.19289467 -0.06532516 -0.11391088 0.09346846
000180 0c d0 74 be 72 f2 85 bd 98 eb 8a 3e 8f 84 1e be
       -0.23907489 -0.065403834 0.2713287 -0.15480255
000190 17 f7 4c 3e 23 22 4c be ed 9e 8d bd ab ff 27 be
       0.20016132 -0.19934897 -0.06915078 -0.16406123
0001a0 ce 74 5d 3e 61 9d 43 3e e0 4a 99 3e 20 2d 0b 3e
       0.21626589 0.19103004 0.29939938 0.13591433
0001b0 45 8f 83 3e 4f 07 36 3e cd 9a 29 3d 85 1b 15 3e
       0.25695243 0.17776226 0.041407395 0.14561279
0001c0 37 20 9e be 76 91 8c bd 3b 1e 89 be 6b 76 a0 be
       -0.30883953 -0.06863682 -0.26780877 -0.31340346
0001d0 c0 92 3c bd e9 85 a5 3e b4 e0 35 3d bc 35 cf 3d
       -0.04603839 0.32328728 0.044403747 0.10117671
0001e0 89 19 a2 be 67 f7 74 be e5 5e 45 be 5f 28 34 3e
       -0.31660107 -0.23922502 -0.1927448 0.17593525
0001f0 1c 6f 2f be af 4d 8b be 05 8f 8c bd ca 96 16 3d
       -0.17132229 -0.27207705 -0.06863216 0.036764897
000200 78 0d c2 3c bd 58 f0 3d 3d a7 8e be 5c 8c 1f be
       0.023688063 0.117356755 -0.27861968 -0.15580887
000210 c9 ee 86 be e6 31 0f bd fe bd 73 3e 69 0c b3 bd
       -0.26354054 -0.034959696 0.23802945 -0.087426014
000220 51 9a 0a 3e ab 55 39 be d0 b5 06 3e 7d 4e 5e be
       0.1353543 -0.18099086 0.13155293 -0.21709628
000230 2f 29 88 3e 49 db 4c be 76 a6 1a 3e 07 51 77 be
       0.2659392 -0.20005526 0.15102562 -0.24152003
000240 dd 5d bc 3d 7e ba 28 3e 6d d9 95 3e ec 7e 4b 3e
       0.091975905 0.16477391 0.29267445 0.19872636
000250 e8 8a ad 3c 6f 57 83 3e 24 9b 1e 3e a1 0b 42 bd
       0.0211844 0.25652644 0.15488869 -0.04737437
000260 55 c9 5f 3e 6c 12 f3 3d e3 88 b4 bb 10 1d 7f 3e
       0.21854146 0.11868748 -0.005509482 0.2491343
000270 12 9c 57 be 26 b5 9f 3d b7 41 2a bd 59 b1 93 3e
       -0.2105563 0.07798223 -0.041566577 0.28846243
000280 1f 60 7d be 4a 5e 24 be 2f bd 26 bc e8 c7 b1 3d
       -0.24743699 -0.16051593 -0.010176941 0.08680707
000290 56 b6 64 be 1d 9f 7d 3e cd 7f 35 3e 22 12 e7 3c
       -0.2233518 0.24767728 0.17724533 0.028206889
0002a0 67 2a 09 3c 28 66 13 3e 83 bf 96 bc 54 7d a0 3e
       0.008371926 0.14394438 -0.018401867 0.31345618
0002b0 d4 4a ff 3d ba 00 8e be eb aa 9a bd 9d 4e 80 3e
       0.12465444 -0.2773493 -0.07552131 0.25059977
0002c0 26 62 82 3e cf 3a c8 3d 5a 7b b4 bd 3f c8 35 3e
       0.25465506 0.09776842 -0.0881259 0.17752169
0002d0 69 40 a0 3e 7f ba 21 be b2 cd 8e 3e 77 1b a6 be
       0.3129914 -0.15793799 0.27891308 -0.3244283
0002e0 01 5b a9 be e3 4d 7b be da 56 30 3d 74 47 93 bc
       -0.33077243 -0.2454143 0.043051578 -0.017978407
0002f0 ba 32 8b be b5 4c 90 3e 33 4c 1e 3e c6 77 30 be
       -0.2718714 0.28183523 0.15458755 -0.1723319
000300 f9 1b 8b be 13 e8 a2 3d e3 e6 26 3d 35 0c a6 be
       -0.2716978 0.07954421 0.040747534 -0.32431188
000310 d5 27 71 bd f2 04 4d 3e 77 e1 4d 3e 54 f8 fc 3c
       -0.058875877 0.20021418 0.2010554 0.03088013
000320 3e b9 0f be b0 c0 ec 3d ce 18 aa be c9 5f 5b be
       -0.14035508 0.1156019 -0.3322205 -0.21423258
000330 78 aa 60 3e 80 9e 48 be 71 50 43 3e 00 85 a5 be
       0.21940029 -0.19591713 0.19073655 -0.32328033
000340 3a 6b 13 3d 04 b4 99 bd 8b 9d 8f 3e b0 e5 eb 3d
       0.03599093 -0.075050384 0.28049883 0.11518419
000350 91 49 31 be d9 3c bb bd 86 42 f7 3b f2 dd 40 3e
       -0.1731322 -0.09142465 0.007545772 0.18834665
000360 b9 67 b7 3d 30 96 03 3d 1e 58 3b be d8 97 01 3e
       0.089553304 0.03212565 -0.18295333 0.1265558
000370 10 96 9e be 7e 59 2b 3e 7d 9e 18 3e 1d 7d a0 3e
       -0.30973864 0.16733357 0.14904208 0.31345454
000380 e9 43 92 3e 3d a3 4a bd e5 97 e9 3d 5f 96 14 3e
       0.28567436 -0.049472082 0.11405925 0.14510487
000390 f9 d1 75 be 44 8c 34 3e da 5b 56 3c 84 51 d2 3c
       -0.2400588 0.17631632 0.013083423 0.025673635
0003a0 33 39 8c 3e d3 a3 90 be 8d 1c a5 be 1e 05 86 3c
       0.2738739 -0.28249988 -0.32248345 0.016359862
0003b0 fb 87 eb 3c 16 c9 80 be 31 e9 f0 bc 83 c0 32 bd
       0.028751364 -0.25153416 -0.02940807 -0.043640625
0003c0 b4 b4 47 be 13 1e 20 3d 7c 81 e7 bd 99 e4 a2 be
       -0.19502527 0.03909118 -0.11303994 -0.3181503
0003d0 a8 ca fe 3d 5e 50 a7 be e6 05 95 3e 83 d7 32 be
       0.12440997 -0.32678503 0.29106063 -0.17465024
0003e0 de c5 7e 3e 72 51 5f 3e e2 f5 a0 3e a1 46 a8 3e
       0.24880168 0.21808413 0.31437594 0.32866386
0003f0 ef 94 5f be 34 60 52 bd ae 2d 91 3d c9 10 8d be
       -0.21834157 -0.051361278 0.07088791 -0.2755187

encoder.0.0.bias f4 [64]
000000 b4 48 fd bd 45 00 92 3e 5a 1d 25 3e ee fb b0 3c
       -0.12367383 0.2851583 0.16124478 0.021604504
000010 43 84 b1 bd c1 af 8b 3e 2c ec 82 3e a1 88 8d be
       -0.08667805 0.27282527 0.2557081 -0.27643302
000020 ac 79 76 be 4f e6 9b bd 09 86 64 3e e7 82 2a be
       -0.24069852 -0.07612287 0.22316755 -0.16651498
000030 75 e9 78 bd 41 fd b5 3d 03 98 92 bd cf 1a 8f bb
       -0.060769517 0.08886195 -0.071579 -0.0043672095
000040 d0 00 4e bd 6c 8c 0f 3e 07 be 9e 3e a2 54 40 bd
       -0.050293744 0.1401841 0.31004354 -0.046955712
000050 73 c0 5e 3e 5a 4c a6 be 64 fe 56 be ea f7 6e be
       0.21753101 -0.32480127 -0.2099548 -0.23336759
000060 93 87 fc 3d b3 af 80 bd 41 02 92 3d 16 5f 96 bc
       0.12330546 -0.06283512 0.07129336 -0.018355887
000070 35 df 51 be af d4 b1 bb 03 33 d4 bd 7e ab 23 3e
       -0.20495303 -0.005426965 -0.10361292 0.15983388
000080 29 dc 44 be 67 c8 44 3e cc dc 0c be 2a f9 2b bd
       -0.1922461 0.19217072 -0.13756102 -0.04198567
000090 d2 d4 0f 3d d4 6a 0e be 4e af 7c be 50 01 99 3e
       0.03511507 -0.13907939 -0.24676248 0.29883814
0000a0 2d 10 4d be fc 2b a0 be 7c 51 96 3e f4 89 ae bd
       -0.20025702 -0.31283557 0.29359043 -0.08522406
0000b0 8d f2 94 bd 2e e4 08 3e 01 32 52 3e 47 a4 01 3e
       -0.072728254 0.13368294 0.20526887 0.12660323
0000c0 8d 3f 69 be b0 72 60 3e e4 4e 47 be 3a 14 6d 3e
       -0.22778149 0.2191875 -0.19463688 0.23152247
0000d0 c4 ac 10 be 6b 06 81 3e 8d 7f 6d 3e 82 98 48 bd
       -0.14128405 0.2520021 0.23193188 -0.048973568
0000e0 89 9f aa be 8c f1 98 be 48 30 4e 3e ab e9 2b 3e
       -0.3332484 -0.29871786 0.20135605 0.16788356
0000f0 44 76 0f bd c8 a6 af bd 1e 53 9d be 87 44 a1 3e
       -0.035024896 -0.08576733 -0.30727476 0.31497595

encoder.0.1.weight f4 [64]
000000 87 7e 7d 3f 6a 56 81 3f d7 e1 7f 3f 5e 42 80 3f
       0.9902119 1.0104496 0.9995398 1.0020254
000010 3f 8f 7f 3f c2 a2 80 3f 1c a9 80 3f cc 42 7e 3f
       0.9982795 1.004967 1.0051608 0.99320674
000020 c3 ca 80 3f 89 59 7e 3f 5f 59 7c 3f da 13 80 3f
       1.0061878 0.9935537 0.9857387 1.0006058
000030 f0 48 80 3f b0 3a 7c 3f ab 15 80 3f 4c 6c 82 3f
       1.0022259 0.9852705 1.0006613 1.01893
000040 85 9a 80 3f a4 6c 80 3f c4 63 7f 3f 49 e9 7f 3f
       1.0047156 1.0033154 0.99761605 0.9996534
000050 8f b5 80 3f 80 ef 80 3f 16 5c 80 3f 54 3e 80 3f
       1.0055407 1.007309 1.0028102 1.0019021
000060 f1 df 7d 3f 24 3d 7f 3f a2 f4 7f 3f 55 30 80 3f
       0.9916983 0.9970267 0.99982655 1.001475
000070 fe c2 7e 3f 14 a8 7f 3f a4 0f 7f 3f f9 6d 80 3f
       0.99516284 0.9986584 0.9963324 1.0033561
000080 11 fa 7d 3f dc ad 7e 3f 19 a7 80 3f 64 04 7f 3f
       0.99209696 0.9948404 1.0050994 0.99616075
000090 22 92 7d 3f 0d 78 80 3f f6 26 81 3f a4 6f 80 3f
       0.99051106 1.0036637 1.0090015 1.003407
0000a0 14 7d 80 3f 81 12 80 3f 5a 05 7f 3f 5a a4 7f 3f
       1.0038171 1.0005647 0.9961754 0.99860156
0000b0 04 2e 80 3f 45 c7 7f 3f 6d d6 7f 3f e0 4d 7e 3f
       1.0014043 0.99913436 0.9993656 0.9933758
0000c0 7e 1a 80 3f d5 cd 7f 3f c7 7e 7f 3f 11 3c 80 3f
       1.0008085 0.9992345 0.9980282 1.0018331
0000d0 53 a7 80 3f 4c bd 80 3f f8 50 80 3f a0 af 80 3f
       1.0051063 1.0057769 1.002471 1.0053596
0000e0 2a 5a 7d 3f a4 da 7e 3f da a9 7f 3f 11 81 7f 3f
       0.98965704 0.9955237 0.9986855 0.99806315
0000f0 08 8c 80 3f 7e 1c 80 3f 4c 0a 7f 3f dc 20 7f 3f
       1.0042734 1.0008695 0.99625087 0.99659514

encoder.0.1.bias f4 [64]
000000 35 23 20 3c b6 20 9a 3c a0 54 15 bb 15 60 1e 3b
       0.009774019 0.018814426 -0.0022786036 0.0024166156
000010 77 ab 88 3c 90 f7 8a bb 05 1a 28 3c 4e 31 fb 3a
       0.016683323 -0.0042409375 0.01026011 0.0019164474
000020 0a ab a3 3c 3a b5 f3 bb 35 7a bb 3a 9c 4e 17 bc
       0.019979019 -0.0074373754 0.0014303388 -0.0092350505
000030 92 2f 81 bc 5c b4 36 bc e7 07 77 3c 70 90 97 3c
       -0.015769754 -0.011151399 0.015077568 0.01850149
000040 6f 86 ca 3b 7c c8 31 3b a9 fb 8c bb 48 33 12 bc
       0.0061805765 0.0027127555 -0.004302461 -0.008923359
000050 30 5a 66 3c 37 65 84 3b 4c 53 b0 ba d9 d2 16 bc
       0.014059588 0.004040386 -0.0013452559 -0.009205543
000060 58 79 5b bc 8b b0 92 3c ea 3b 97 3b 20 08 3d 3c
       -0.01339563 0.017906448 0.0046152966 0.011537582
000070 c5 e6 ab bb 13 35 ec bb 2b e7 c3 bb 4b 96 9f 3b
       -0.0052460157 -0.0072084754 -0.005978485 0.0048702112
000080 89 78 4f bc f9 0d 8d bb 42 5e e3 bb 00 dc 96 3a
       -0.012663015 -0.004304644 -0.0069387266 0.0011509657
000090 f5 67 ad bb b2 16 1c 3b ca 85 1f ba 60 fc 53 bc
       -0.0052919337 0.0023817238 -0.0006085305 -0.012938589
0000a0 e7 5c d4 3b 56 21 c1 3b 37 cd 27 3c f6 1a 94 bb
       0.0064808014 0.0058938665 0.010241798 -0.0045198156
0000b0 94 16 91 3b b9 0c ee 3b dd a9 1d bc 0f eb ac 3c
       0.0044277404 0.0072647003 -0.009623018 0.021108178
0000c0 4f fd c7 3c ce c6 71 3a 87 fd ac 3c 75 01 9b b7
       0.02441278 0.00092230446 0.021116985 -1.8478118e-05
0000d0 25 af f4 3b 5d 1a a8 3b 06 41 7a 3b d8 0c 9d 3b
       0.007467168 0.005130096 0.003818573 0.004792791
0000e0 73 39 4d bb 16 92 66 bb ea 58 b8 3b 52 80 3f 3b
       -0.003131476 -0.003518229 0.0056258338 0.0029220772
0000f0 e7 6d 2f 3c 2d 37 8f bb 36 6e 7e bb 1d 69 ce bb
       0.010707355 -0.004370591 -0.0038823015 -0.0062991516

encoder.0.1.running_mean f4 [64]
000000 7a 5b fd bd b0 e8 92 3e 1c 8f 24 3e 5b c3 af 3c
       -0.123709634 0.2869315 0.16070217 0.021455457
000010 21 72 b0 bd 8d 61 8b 3e 52 aa 82 3e cf 0c 8d be
       -0.08615518 0.27222863 0.2552057 -0.27548835
000020 16 d5 76 be de 82 9a bd 14 a2 64 3e 50 06 2b be
       -0.24104723 -0.07544492 0.22327453 -0.16701627
000030 89 3a 77 bd 78 4f b7 3d 1c 94 91 bd 3f 3d 86 bb
       -0.060358558 0.08950704 -0.07108328 -0.0040966566
000040 95 cc 54 bd 21 71 0f 3e 3f 74 9e 3e 9c 4c 44 bd
       -0.051952917 0.14007999 0.30948064 -0.047924623
000050 b8 a4 5f 3e 55 44 a6 be fc cc 56 be 70 e9 6e be
       0.21840179 -0.32474008 -0.20976633 -0.23331237
000060 8f ff fa 3d fb 32 81 bd 64 35 94 3d 23 ba 9c bc
       0.12255775 -0.06308552 0.07236746 -0.019131726
000070 8e a2 51 be 07 5d 88 bb ca b4 d5 bd bb 67 24 3e
       -0.20472166 -0.0041614803 -0.104348734 0.16055195
000080 a3 66 45 be 42 e0 44 3e d7 69 0c be 3f a3 2c bd
       -0.19277434 0.19226173 -0.1371225 -0.04214787
000090 5a 19 0d 3d 72 55 0e be 91 ab 7c be 99 55 99 3e
       0.034448005 -0.13899782 -0.24674822 0.29948118
0000a0 b8 9a 4d be cf 7d 9f be ef 8a 96 3e bb 91 b0 bd
       -0.20078552 -0.31150672 0.29402873 -0.08621546
0000b0 01 62 94 bd 8b 67 08 3e d6 dc 50 3e 7c 35 00 3e
       -0.07245255 0.13320749 0.20396742 0.12520403
0000c0 39 9a 69 be bb 9c 5f 3e 9e 80 46 be a6 8d 6d 3e
       -0.22812738 0.21837132 -0.19385001 0.23198566
0000d0 2a a9 11 be 0f 2d 81 3e f7 7d 6e 3e eb c4 4a bd
       -0.14224687 0.2522969 0.2329024 -0.0495042
0000e0 34 27 ab be f3 ec 98 be 84 04 4f 3e a8 41 2d 3e
       -0.33428347 -0.29868278 0.20216566 0.16919577
0000f0 1e 99 0e bd 6a 53 af bd 58 ca 9c be a5 46 a1 3e
       -0.034813993 -0.08560832 -0.30623126 0.3149921

encoder.0.1.running_var f4 [64]
000000 53 68 9b 41 29 f3 40 42 1c 95 b2 41 13 c9 0a 41
       19.42594 48.23746 22.322807 8.67409
000010 3d d9 a5 41 b8 05 ac 41 25 1d 1a 42 37 dd 17 42
       20.731073 21.502792 38.52846 37.96603
000020 f9 6e b4 41 8e ce 94 41 a6 19 b0 41 d5 3c 82 41
       22.554186 18.600857 22.012524 16.279703
000030 a5 35 1a 42 b4 b2 cd 41 e4 ce 37 41 d8 c9 12 40
       38.552387 25.712257 11.48801 2.2935696
000040 2c 5b 1e 42 c4 9f 52 41 3c 4d 84 41 c2 9d ce 41
       39.589035 13.164005 16.537712 25.82703
000050 57 65 1e 42 f7 66 08 42 10 d2 12 42 78 68 0e 41
       39.598965 34.10055 36.70514 8.900505
000060 b1 c5 cb 41 3f 9a eb 41 d8 fc e6 41 b6 2a 35 42
       25.471529 29.450315 28.873459 45.29171
000070 4b 25 1c 42 0b c0 10 42 f1 7a c0 41 ac 14 a7 41
       39.03642 36.187542 24.06003 20.885094
000080 a7 54 2a 42 44 09 e3 41 9d 49 bf 41 c6 9d 83 41
       42.58267 28.379524 23.910944 16.452038
000090 13 89 3d 41 35 7f 42 41 0b 65 1f 42 94 a1 32 42
       11.845965 12.156056 39.848675 44.65779
0000a0 ec 78 05 42 cd 53 0a 42 9a f5 24 42 3a dd 9f 41
       33.368088 34.581837 41.239845 19.98302
0000b0 3d 36 0d 41 41 6c 24 41 c9 c1 35 42 45 cf ea 41
       8.825742 10.276429 45.439243 29.351206
0000c0 f6 0d b3 40 17 45 04 42 36 6b 98 41 25 2c d0 40
       5.595454 33.06747 19.05235 6.5053887
0000d0 59 7c 94 41 15 97 5a 41 ab 85 e2 41 04 fa 90 41
       18.560717 13.661885 28.315268 18.122078
0000e0 a5 53 2b 42 f4 4f 94 41 be 4e 52 41 f7 8a a4 41
       42.831684 18.53904 13.144224 20.567854
0000f0 8c de 89 41 cd 03 34 41 b4 21 b1 41 5c 84 68 41
       17.233665 11.250928 22.141457 14.532314

encoder.1.0.weight f4 [64, 64, 3, 3]
000000 24 d4 8d 3c ca 9e 0a bd ee 85 46 3c 34 17 22 3d
       0.01731307 -0.03384284 0.012116892 0.03957291
000010 a2 15 0d bd 69 43 90 3c d5 7b 10 bd 14 ed 8e bc
       -0.03444446 0.017610269 -0.035274345 -0.017447032
000020 40 36 fd bc 0a 77 4c bc 24 9a 02 3d 74 14 dc 3c
       -0.030909657 -0.012479553 0.03188528 0.026865222
000030 9f 93 81 bc 27 2a 10 bd bb eb f3 ba 95 bc 23 3d
       -0.015817462 -0.03519645 -0.0018609682 0.039974768
000040 f0 e1 ca ba 73 34 dc bc 23 20 7c bb 74 23 2e 3d
       -0.0015478712 -0.026880478 -0.0038471303 0.04251428
000050 a5 3d a4 bc 1c a9 ef bc 1a de 05 3d 92 ac 8a ba
       -0.020048926 -0.029255442 0.032682516 -0.0010579994
000060 3c ac 9f bc 8f b0 82 bb 78 af 9d bc 9a 0e 97 bc
       -0.019491307 -0.0039883326 -0.01924871 -0.01843958
000070 1e 22 0f 3d 98 41 cc bc 1a 61 47 bc 90 12 e4 bc
       0.034944646 -0.024933621 -0.012169147 -0.027840883
000080 ab 3e d4 3b 20 99 43 bd 0c 33 55 3c 16 09 12 3d
       0.006477197 -0.047753453 0.013012659 0.035653196
000090 3f 6e b4 bb 7f b0 0c 3d 5a bb 42 bd 81 cc 41 bd
       -0.0055063064 0.034348007 -0.047541954 -0.04731417
0000a0 ae c3 69 3c ab ee f4 bb 1e fe a8 bc 7c 6f 1e bd
       0.014267845 -0.0074747405 -0.020628985 -0.03868054
0000b0 17 92 cd 3c 96 ae 3f bc 8f d7 41 3a 56 99 a5 bc
       0.025094075 -0.011699339 0.00073944865 -0.020214718
0000c0 87 e0 a1 bb 86 d1 a1 bc 94 7f 13 bd 28 60 15 bd
       -0.004940096 -0.019753229 -0.03601034 -0.036468655
0000d0 03 f4 95 bc 6f c1 c6 3c 34 f3 99 bc 97 70 66 bb
       -0.01830483 0.024262158 -0.018792726 -0.0035162324
0000e0 19 c8 b4 3a 93 02 83 3b 18 a4 10 bc 66 fe a7 3c
       0.0013792544 0.0039981096 -0.0088281855 0.020507049
0000f0 16 64 42 3c b8 fe c4 bc 33 32 4c bb fa 50 53 3c
       0.011864683 -0.02404724 -0.003115785 0.012897724
000100 3e 55 82 3c 59 b9 8a bc e3 48 f0 bc ef f5 29 bc
       0.015909787 -0.016934084 -0.02933163 -0.010373577
000110 f7 28 b3 3c a5 3f 18 3d 5a ac 82 3c 53 59 ec 3c
       0.02187012 0.03717007 0.015951324 0.028851187
000120 30 c9 cd bc fa cf 96 3c bd a0 04 bd 75 6a d1 3c
       -0.025120348 0.018409718 -0.032379854 0.025563458
000130 a5 35 c0 bc e8 bc d9 3b fe 2e b7 3c 17 7f 2e 3d
       -0.02346308 0.006644834 0.022361275 0.04260167
000140 47 07 26 3c 75 21 c5 3c e5 f5 fa 3c 10 33 83 bc
       0.010133571 0.024063805 0.03063483 -0.01601556
000150 1a a9 e5 3b d1 b5 20 bd f6 03 aa 3c 66 ff 46 3d
       0.007008684 -0.039235894 0.020753842 0.04858341
000160 23 7b 89 bb 7c 0f 12 3d 2c 46 76 bc 5c cd 27 bd
       -0.0041955872 0.0356593 -0.015031379 -0.04096733
000170 e3 e4 cf bc 46 71 59 3c 6d 7b 06 bd cd 2f 13 bd
       -0.025377696 0.013271635 -0.03283255 -0.03593426
000180 9b db b9 3c a1 c7 05 3d a3 46 97 bc 8a 27 7c 3b
       0.022687724 0.032661084 -0.0184663 0.0038475716
000190 58 cd 99 bc d6 23 86 3c 2c 07 3d 3c 33 7c 16 3d
       -0.018774673 0.01637451 0.011537354 0.03673954
0001a0 f7 29 1a bd 41 74 14 3d 27 e3 7d bc e7 ed ab bc
       -0.037637677 0.03624368 -0.015496052 -0.020987464
0001b0 13 3d e9 3b b2 c7 3a bd c0 23 2b bd 67 85 06 3d
       0.0071178763 -0.0456006 -0.04178214 0.032842066
0001c0 a2 37 0c bd fd fa 48 bc 64 78 1a bb fa 46 cb 3c
       -0.034232743 -0.0122668715 -0.0023570294 0.024814118
0001d0 92 0c 1a bd f1 e1 84 3b 68 60 af bc 92 0f b3 bc
       -0.037609644 0.0040552546 -0.021408275 -0.02185801
0001e0 79 a6 9d 3c 1f 45 65 3c ed b5 62 3c b9 ff 27 39
       0.01924442 0.0139935305 0.01383732 0.00016021625
0001f0 bb 4c c0 bc f4 16 b1 3c 01 81 d3 bc 7f 8f f5 bc
       -0.023474088 0.02161739 -0.02581835 -0.02997565
000200 19 2b 10 bd 0d fb c2 bb 0a 01 87 3c f8 6f a7 ba
       -0.03519735 -0.0059503377 0.016479988 -0.0012774458
000210 b0 51 06 bc 50 1d fd 3c 9a 55 b0 3c 38 4a fb 3c
       -0.008198187 0.030897766 0.021525193 0.030675039
000220 c5 37 0d 3c 8f 23 fc 3c a8 64 7c bc 44 20 03 bc
       0.0086192535 0.030778674 -0.015404858 -0.008003298
000230 01 fa 3d 3d 48 64 de 3c 40 22 d9 3b 39 f4 2f bd
       0.046381 0.027147427 0.0066263974 -0.04295752
000240 64 97 10 bd d4 2b 76 3c 78 3b 94 bc 98 12 98 3c
       -0.035300627 0.015025098 -0.018094763 0.018563554
000250 c4 03 ea bc 16 7a ee bc 67 7c 5a 3c 0b 79 f5 bb
       -0.028566249 -0.02911095 0.013335324 -0.007491236
000260 2f 13 9d 3c 4c 5a 88 3c c9 bc 9b 3c 83 e6 ca bc
       0.019174187 0.01664462 0.019010918 -0.02476812
000270 af b9 62 3c a0 ce 45 3c bb 26 32 bd c9 ee dd 3c
       0.013838216 0.012073189 -0.043493968 0.0270914
000280 b7 40 dc 3c f1 23 44 3a 4d 83 f6 3b 03 c7 00 bd
       0.026886327 0.00074821623 0.0075229765 -0.031439792
000290 9f 90 ef bc 38 00 c1 bb 16 72 a4 3b 37 f1 e4 bc
       -0.029243765 -0.0058899187 0.005018483 -0.027947051
0002a0 bb 82 2b bd ef e2 53 3c c1 a4 a2 3b 67 bc 34 3c
       -0.04187272 0.012932523 0.004963488 0.011031247
0002b0 6f fd d0 bc 51 43 b6 3a 94 5f 6b b9 48 cf 97 3b
       -0.025511472 0.001390556 -0.00022446952 0.004632864
0002c0 c8 a8 d5 bc ce 50 d8 bc 12 ec c2 3b 70 a3 6e 3c
       -0.026081458 -0.026405718 0.005948552 0.014565334
0002d0 95 c2 24 bd ba 38 b9 bc 95 6f 09 bd 4b dc 31 bb
       -0.04022463 -0.022610057 -0.03355368 -0.0027139361
0002e0 9b 48 b4 3c f6 9f ee 3c b2 4d 50 3d e3 85 f5 ba
       0.022007277 0.02912901 0.050855346 -0.0018731918
0002f0 50 b7 ee 3c 7a cf 24 3d e7 55 66 3c a8 f1 86 bb
       0.029140145 0.040236928 0.014058567 -0.004118163
000300 7f b3 08 3d e9 a7 e0 bc 65 c0 09 bd fb 33 e9 bc
       0.033374306 -0.027423816 -0.033630747 -0.028467169
000310 41 51 35 3c cb 26 07 3d 5c c3 8e bc ae c8 c8 3c
       0.011066736 0.03299598 -0.017427139 0.024509754
000320 34 a7 ee bb a3 b6 13 bc 32 6c aa bc 74 47 68 3b
       -0.0072831158 -0.009015712 -0.020803545 0.003544298
000330 3e 82 a0 3b 52 92 8d bc 05 61 00 3d 5d 04 1d 3d
       0.0048983386 -0.017281685 0.031342525 0.03833424
000340 3e 10 98 3a 7b 77 e6 bc c7 90 69 bc c0 80 d4 3c
       0.001160152 -0.028133145 -0.014255709 0.025940299
000350 b3 7b 51 3b 60 ea 40 bc 5d 4d 2e 3d 86 8c 28 3c
       0.00319646 -0.011774629 0.042554248 0.01028741
000360 58 3a 44 3d 85 fd 03 3d df 97 50 ba 59 5b d5 ba
       0.047907203 0.032224197 -0.0007957201 -0.0016277834
000370 08 c1 b5 3b 8d c9 32 bd e5 6e fd 3c a2 a1 ff 3c
       0.0055466928 -0.043649245 0.030936668 0.031205002
000380 67 57 16 bc 71 f7 55 bc 58 4c 0e bd b0 8d 52 3b
       -0.009176112 -0.013059483 -0.034740776 0.003212791
000390 06 53 e1 3c 91 f3 d6 3c 50 a0 06 bd 0e 94 45 3d
       0.027505409 0.026239188 -0.03286773 0.0482369
0003a0 56 9a a7 3c 8f 7e f9 bc 59 a3 1d 3c 59 95 08 3d
       0.020459335 -0.030455856 0.009621465 0.033345554
0003b0 b0 f0 d2 bc df 1b ce 3b 1f ae b9 bc d7 3b 1c 3d
       -0.025749534 0.0062899436 -0.022666035 0.038143005
0003c0 fd 67 fd bc 64 f8 68 b9 59 5c b8 3c 89 d4 d1 3c
       -0.030933375 -0.00022217777 0.022504972 0.02561404
0003d0 40 70 8c bc b6 1b 09 bd 22 83 4d 3c 2c 9e be 3c
       -0.017143369 -0.033473693 0.0125434715 0.023268782
0003e0 4a ba bb bc fc a9 10 bd 66 6b e9 3c 73 2e 74 3a
       -0.022915978 -0.03531836 0.028493594 0.0009314783
0003f0 56 cc 0e bd 20 d6 72 3b e9 2c 0d 3d 50 81 2b bc
       -0.03486284 0.0037053898 0.034466658 -0.010467842

encoder.1.0.bias f4 [64]
000000 da 32 b5 3a b1 1a 79 3b bb 1b 1a 3c 4e 87 69 bc
       0.0013824359 0.0038010294 0.0094060255 -0.014253451
000010 e7 98 cb 3c 88 b1 b3 bc c5 48 ca 3c d2 74 a2 3c
       0.024853183 -0.02193524 0.024692902 0.019831095
000020 c7 d1 7f bc 2a 71 1f 3d ae 3a 37 3d 92 42 b5 3a
       -0.01561398 0.03892628 0.044733696 0.0013829044
000030 5f 0a 29 3d 8b 37 21 bc ed 56 80 3c 53 21 01 3c
       0.041269656 -0.009839903 0.01566645 0.00788148
000040 42 86 07 bd 86 53 85 bb d6 e2 b4 bb 37 d4 0f bd
       -0.033087023 -0.0040687947 -0.005520205 -0.035114493
000050 a2 0d 03 3c eb 37 2b bd 28 30 f3 ba 96 f5 06 bc
       0.007998856 -0.041801374 -0.001855378 -0.008237263
000060 6f 6a 6b 3c b1 26 25 3d 11 0f f6 3b a4 4b b6 3c
       0.014368637 0.040320102 0.0075091203 0.022252865
000070 c2 1c 18 bd e4 96 8e 3a 42 77 8d bc 7f 08 1f 3c
       -0.0371368 0.0010878709 -0.01726878 0.0097066155
000080 4b 0c de 3c 3f 47 13 bd e8 8f 05 3d 51 b6 3f 3d
       0.027105471 -0.035956617 0.032607943 0.04680473
000090 d4 eb 29 3c 37 b1 3d 3d 01 53 a0 3c ea 3f 41 bc
       0.010371167 0.046311583 0.01957083 -0.011795023
0000a0 07 e1 6f 3c 79 3d 95 3b 6c 54 1a 3d 11 1f 3b bd
       0.014641053 0.0045544473 0.037678167 -0.045683924
0000b0 b2 96 5c 3c 97 1b 94 bc dd 4f 84 3c 14 73 90 bc
       0.013463663 -0.018079562 0.016151363 -0.017632999
0000c0 d0 e5 a2 3c 1b 3a b4 3b af 32 a1 bc 4e 4f e6 3c
       0.019884974 0.005500091 -0.019677488 0.028113987
0000d0 b8 83 ca bb 51 a8 65 bc 66 22 b8 3c 25 00 08 3d
       -0.006180253 -0.014017181 0.02247734 0.033203263
0000e0 f6 78 00 3d 06 2a 10 3d df 51 e4 bc 0e 3f 36 3d
       0.031365357 0.035196327 -0.02787107 0.044493727
0000f0 04 be 3c 3d 3f 13 01 bc 6f f7 a8 3c fd 88 45 bd
       0.04607965 -0.007878124 0.020625798 -0.048226345

encoder.1.1.weight f4 [64]
000000 e8 2f 80 3f b8 5a 81 3f 4d 54 80 3f 04 85 81 3f
       1.001462 1.010581 1.0025727 1.0118718
000010 23 c5 7e 3f 67 31 82 3f a4 c8 7e 3f 03 43 7e 3f
       0.99519557 1.0171326 0.99524903 0.99321
000020 41 d7 80 3f 61 f6 7c 3f f7 b7 80 3f bb 29 80 3f
       1.006569 0.98813444 1.0056142 1.0012735
000030 aa d8 7f 3f 4a 6f 80 3f 2a c5 81 3f cf 3d 81 3f
       0.9993998 1.0033963 1.0138295 1.0096987
000040 82 2b 80 3f 5c e7 81 3f ad 0b 80 3f e9 dd 7f 3f
       1.0013278 1.014873 1.0003563 0.99947983
000050 58 14 80 3f 94 ce 80 3f 04 d8 7e 3f a9 fd 81 3f
       1.0006208 1.0063043 0.99548364 1.0155536
000060 a4 7f 7f 3f 0f 57 7f 3f 4c 32 80 3f 94 73 7e 3f
       0.9980414 0.99742216 1.0015349 0.9939511
000070 67 e7 7f 3f 3e d9 80 3f a3 ba 81 3f 36 a3 80 3f
       0.99962467 1.0066297 1.0135082 1.0049808
000080 ce f3 7f 3f 96 a3 80 3f 01 32 80 3f dd a2 7e 3f
       0.9998139 1.0049922 1.001526 0.9946726
000090 8f f4 7e 3f fb 02 80 3f 16 4b 7f 3f cb 8a 7f 3f
       0.99591917 1.000091 0.9972395 0.99821156
0000a0 50 af 7d 3f 16 19 80 3f 56 21 80 3f de 49 7f 3f
       0.9909563 1.0007656 1.0010173 0.9972209
0000b0 56 7d 7d 3f f7 a3 80 3f 09 46 7e 3f 5e 84 7e 3f
       0.9901937 1.0050038 0.99325615 0.99420726
0000c0 21 4a 80 3f 67 ef 80 3f 29 d4 7f 3f 3e 1c 7d 3f
       1.0022622 1.007306 0.99933106 0.9887122
0000d0 98 1f 7e 3f 01 aa 80 3f fb e5 7d 3f b9 ec 7f 3f
       0.9926696 1.0051881 0.9917905 0.99970585
0000e0 c5 bc 80 3f 50 8d 80 3f 76 7c 80 3f d6 19 80 3f
       1.0057608 1.0043125 1.0037982 1.0007885
0000f0 9c 6c 7f 3f 09 3d 7f 3f b0 1b 7f 3f 14 bc 7f 3f
       0.997751 0.9970251 0.9965162 0.9989636

encoder.1.1.bias f4 [64]
000000 84 6b be 3c b4 0d 0a 3d d2 76 87 3c 6a 41 d1 3c
       0.023244627 0.033704475 0.01653615 0.025543887
000010 f1 4e a8 bb 9a 01 fd 3c 97 d6 a3 bb 87 1b 3d 3c
       -0.0051363637 0.030884553 -0.0049999463 0.011542208
000020 04 42 0a 3d 02 ec 52 bc 4a c5 a7 b9 f6 80 5e 3c
       0.033754364 -0.012873651 -0.00031999714 0.013580551
000030 85 c6 11 ba a8 71 05 3d 1b 86 ef 3c ab 07 08 3c
       -0.0005560893 0.032579094 0.029238751 0.008302609
000040 2e dc a5 bb 04 86 64 3b 67 4b 61 3b 9b c0 3e 3b
       -0.005061648 0.0034869919 0.0034377219 0.00291065
000050 96 96 11 3c cd b9 52 3c ba 65 14 ba b9 b0 9c 3c
       0.008886 0.012861681 -0.00056609104 0.019127237
000060 9a 93 a2 bb 23 cc cf bb fa f7 48 3b 7b e6 09 bc
       -0.004961443 -0.0063414737 0.0030665384 -0.008416767
000070 f0 9f 6b 3b 46 a0 9f 3c 85 bf ae 3c ec cf 1c bc
       0.0035953484 0.019485604 0.021331558 -0.009571057
000080 48 b5 be bb ba 10 82 3c 32 b5 b6 3c 1c 33 bf 3b
       -0.0058199503 0.015877116 0.022303198 0.00583495
000090 47 9a 39 bb 08 3a c9 3b 4b 4a d7 bb 0e a6 a1 ba
       -0.0028320716 0.006140951 -0.0065701357 -0.0012332813
0000a0 cf 38 94 bb 3e 66 dd ba 2f 2b 08 bb e4 11 41 bc
       -0.0045233737 -0.0016891432 -0.0020777693 -0.011784051
0000b0 ae a0 63 3b a3 1e 40 3c 2d 6f 98 ba 82 83 a1 bb
       0.0034733224 0.011726054 -0.0011629813 -0.004929007
0000c0 44 9d 75 3a a4 09 78 3c ca 0d b7 3b 94 66 9a 3b
       0.00093694427 0.015139017 0.0055863606 0.0047119353
0000d0 90 ef 14 3c 21 28 b8 3a 34 44 df 3a 90 7d 47 bc
       0.009090319 0.0014050045 0.0017033876 -0.0121759325
0000e0 b6 af 4a 3c 5b 1c 97 3c d4 b9 d7 3c 83 90 c4 3b
       0.012370994 0.018446138 0.026333727 0.0059986725
0000f0 cd b0 9d 3b 10 46 7c b9 72 96 72 bc eb 32 02 bb
       0.004812336 -0.00024058693 -0.014806377 -0.0019866775

encoder.1.1.running_mean f4 [64]
000000 71 d9 a7 be f7 0f 08 bf 97 ba d8 be 4e 41 07 bf
       -0.32783082 -0.5314936 -0.42329857 -0.5283402
000010 69 51 76 3f 24 df 2f bf cb 85 a9 bf ab 6b 8b be
       0.9621797 -0.6869986 -1.3243955 -0.27230582
000020 96 ed ab be 86 94 df 3f fc 87 14 3e e0 ae 00 3f
       -0.335797 1.7467201 0.14504999 0.5026684
000030 13 a5 a1 3f 04 38 0c bf 89 61 2d be 3b 3d d2 be
       1.2628502 -0.54772973 -0.16931738 -0.4106234
000040 e4 49 dd bf ff b3 d3 bc 70 8c 10 be 6b 1d 8e 3e
       -1.7288175 -0.025842665 -0.14116073 0.2775682
000050 19 81 06 bf f3 2a 57 bf 6b a9 e0 be cd 40 3c bf
       -0.5254074 -0.8404991 -0.43879256 -0.7353638
000060 b8 6c 83 3e 36 78 bf 3e 48 a5 1e c0 17 4a cc 3f
       0.25668883 0.373964 -2.478838 1.596011
000070 1a cb 9d bf 84 cb e4 be 02 43 e4 be 56 1f aa 3f
       -1.2327607 -0.4468652 -0.44582373 1.3290813
000080 71 56 2e 40 20 4d 72 bf e1 bb 3f bf 6c 61 72 bf
       2.724026 -0.94648933 -0.74896055 -0.94679904
000090 b9 d0 11 40 3c 0c 97 bf fe 7d 42 c0 66 2f f1 3f
       2.2783644 -1.1800609 -3.03894 1.884259
0000a0 db b6 38 c0 03 69 27 bf 28 b4 20 c0 14 8a 12 c0
       -2.8861606 -0.6539461 -2.5109959 -2.2896776
0000b0 63 fc 22 c0 0b 06 30 bf 52 8e a9 3f c4 11 bd be
       -2.5466545 -0.6875922 1.3246558 -0.36927617
0000c0 3d 47 b8 3e af d6 a6 3d c3 87 02 c0 34 60 d5 be
       0.3599185 0.081464164 -2.0395362 -0.4167496
0000d0 fd f3 ad bf 39 67 18 3e 2e e8 03 c0 4e c0 fd 3f
       -1.3590084 0.14883126 -2.0610461 1.9824312
0000e0 86 75 fa be a7 bc a6 be 8f 3e c8 be 24 88 f8 3f
       -0.48917788 -0.32565805 -0.39110228 1.9416547
0000f0 e8 34 54 bf 39 7d ac 3f fe b4 5b 3f 9d 0d 4b be
       -0.8289323 1.3475715 0.8582305 -0.19829412

encoder.1.1.running_var f4 [64]
000000 4d 4e d8 3e df 1b 86 3e 8d 01 83 3e fc 12 ce 3e
       0.4224724 0.2619314 0.2558712 0.4024886
000010 ba ea 2b 3f 86 3e ad 3e 81 64 38 3f 45 1f 89 3e
       0.6715504 0.33836764 0.72028357 0.2678167
000020 d8 c4 96 3e 4e bf 9a 3f f1 38 bb 3e e3 2d a6 3e
       0.29447055 1.2089632 0.3656688 0.32456884
000030 4f ce 52 3f 58 bf cd 3e 08 0b 4e 3e 27 ae aa 3e
       0.8234605 0.40185046 0.20121396 0.33335993
000040 11 52 a9 3f c7 86 49 3e 29 a2 c0 3e c1 3e dc 3e
       1.322817 0.1968032 0.37623718 0.43016627
000050 b4 c7 a0 3e 92 db 02 3f 0b 6b bf 3e ab 5c 1d 3f
       0.3140236 0.5111629 0.37386355 0.61469525
000060 f4 e4 da 3e 38 f4 d2 3e d1 5d f6 3f c5 27 88 3f
       0.42752802 0.4120195 1.924738 1.0637137
000070 3b 2b 2d 3f 99 5a d4 3e 7c 66 8f 3e 50 9e 41 3f
       0.6764409 0.4147537 0.28007877 0.7563219
000080 15 6b 15 40 44 ca 0c 3f 7f 16 ed 3e 8e d0 08 3f
       2.3346608 0.5499613 0.46306226 0.5344323
000090 b5 5b e2 3f bd 0a 67 3f 0d 69 39 40 ad 91 a5 3f
       1.7684237 0.9025076 2.8970368 1.2935082
0000a0 ad ba 29 40 ac ff c6 3e 58 ad 09 40 d3 92 de 3f
       2.6520188 0.38866937 2.151205 1.7388557
0000b0 9a df 01 40 7c 3e ce 3e 94 2b 60 3f 3c d6 91 3e
       2.0292726 0.40282047 0.87566495 0.2848376
0000c0 d4 10 d3 3e 3b 10 ac 3e 4b d7 be 3f 6b ba 90 3e
       0.41223776 0.33606133 1.4909452 0.28267226
0000d0 ea 62 4c 3f 56 80 ed 3e 8e 04 b9 3f 65 a9 a5 3f
       0.7983843 0.46386975 1.4454515 1.294232
0000e0 65 d8 99 3e f7 71 4d 3e 85 ac c0 3e 9f bb b3 3f
       0.30047908 0.20063005 0.37631622 1.4041632
0000f0 87 cd 38 3f 97 97 66 3f c2 9f 47 3f 00 18 8e 3e
       0.7218861 0.9007506 0.77978146 0.27752686

encoder.2.0.weight f4 [64, 64, 3, 3]
000000 70 9a 0c 3d 13 eb e0 bc c5 1c b5 bc a9 12 08 bc
       0.03432697 -0.027455842 -0.022108445 -0.00830523
000010 9c 57 26 3d f8 37 a5 3b 3e 81 18 3c 00 15 9a 3b
       0.040610895 0.0050420724 0.0093081575 0.0047022104
000020 19 c8 dd bb be 6a 3d bc 88 18 0c bd 5e 9a d3 bc
       -0.0067682383 -0.011561094 -0.034203082 -0.025830444
000030 65 76 c6 bb b9 53 da 3c 5b 54 a6 bb 1d 17 74 bc
       -0.006056594 0.02665125 -0.005075974 -0.014898089
000040 30 c3 28 3a 39 9b 39 bd b9 8c 40 bc 5f c4 0a bc
       0.00064377766 -0.045314047 -0.011752301 -0.00846967
000050 4c 2e 10 3d 18 87 39 bd 6c bc c6 3c 43 c8 f8 3c
       0.035200402 -0.04529485 0.024259768 0.03036893
000060 9e 59 f5 bc 83 53 d8 bc 6b 46 16 3d 58 20 62 3c
       -0.02994996 -0.026407009 0.03668825 0.013801657
000070 61 c1 8b 3c 23 44 39 bc 56 4b f2 3a 07 41 aa 3c
       0.017059984 -0.011307749 0.0018485587 0.02078296
000080 6e 20 26 bd 28 68 a5 3c d8 1b 0e 3d 32 79 d9 3c
       -0.04055827 0.020191267 0.034694523 0.026547048
000090 ce 7d 13 bd 62 06 df bb e2 8c f4 bb b8 77 8d 3c
       -0.03600865 -0.006806181 -0.0074630836 0.017269
0000a0 9e a6 aa bc a3 92 28 bd db b9 de bc 0e d0 be 3c
       -0.020831402 -0.04115547 -0.027188232 0.023292568
0000b0 a7 8d f3 3c 2c 0e ce 3c 2e c5 60 bc ae 77 c9 bc
       0.029730631 0.025153242 -0.013718886 -0.0245932
0000c0 ab 3d bf bc ae 0d a1 bb d0 aa 3f bd 72 d9 e5 bb
       -0.023344835 -0.004914961 -0.04679376 -0.007014447
0000d0 88 c0 f7 ba a3 14 b7 3a da c6 e2 3c e4 4a 16 3d
       -0.0018901983 0.0013967942 0.02768271 0.036692515
0000e0 73 e6 47 3c 9a 7c 0c 3b 48 81 b6 b9 de d6 8e 3c
       0.0122009395 0.0021436573 -0.00034810067 0.017436441
0000f0 5c 03 72 3c db f6 85 3c 0b 20 ec bc cd 8c 18 bd
       0.014771309 0.016353061 -0.028823873 -0.037243653
000100 fa 81 0f bd fa a7 37 bb 91 6a 64 bc 2e 80 11 3c
       -0.035036065 -0.0028023706 -0.013941423 0.008880658
000110 a9 e2 52 bc a8 05 f4 b9 cc 6c 44 bc 07 cd 1b 3d
       -0.012871423 -0.0004654352 -0.01198883 0.038037326
000120 ae 4c e8 bc 41 72 0c 3c eb 3a 0a 3d af c8 d2 3b
       -0.028356876 0.008572162 0.033747595 0.0064326148
000130 94 51 4c bb 5b c7 d0 b9 1a 78 7f bc 84 b5 5d 3d
       -0.0031176554 -0.00039821383 -0.015592599 0.054128185
000140 0d ca 9b 3c 70 0b 25 3b 71 e5 14 bc 26 2e e2 bb
       0.019017244 0.002518382 -0.009087906 -0.006902474
000150 6a 50 69 3c ef 64 bc 3c 5e 71 e2 3c bd fb fb bc
       0.014240364 0.022997348 0.027641948 -0.030759687
000160 5f b1 37 bd a5 29 af bc 7a 3c 81 3c c9 42 91 3b
       -0.04484689 -0.021382162 0.015775908 0.0044330102
000170 32 26 f8 bc e2 cc ee bc 4a 60 84 bc 00 52 0b bd
       -0.03029165 -0.02915043 -0.016159195 -0.03401375
000180 e4 a8 05 3d 49 5b 90 bc ee 72 43 bc 7a a4 18 bc
       0.03263177 -0.017621653 -0.011929257 -0.009316558
000190 e8 75 2d 3d 7d b2 10 bd 1b 24 75 bb da b6 d3 3c
       0.042348772 -0.03532647 -0.0037405554 0.025844026
0001a0 f0 d3 a3 3c a5 04 3c bc b3 7a 03 3d b0 17 0a 3d
       0.01999852 -0.011475717 0.032099437 0.033713996
0001b0 32 3b f0 bc 7b 98 19 bc 89 5f 3b bc ee 34 84 bc
       -0.029325102 -0.009374733 -0.011436352 -0.01613852
0001c0 a2 a0 e0 bb aa d4 2d bd 6e 4a fe 3c ac 41 f5 bc
       -0.0068550864 -0.04243914 0.03104135 -0.029938541
0001d0 41 f8 25 bd 1c e8 74 bc ee e8 14 3d 62 c7 6f 3c
       -0.040519956 -0.014947917 0.03635495 0.014634939
0001e0 d2 b1 fd 3c 04 75 4d bc 08 88 a7 bc 5c 43 fc bc
       0.03096858 -0.012540106 -0.020450607 -0.030793838
0001f0 00 bd 72 3c 81 75 01 3d 02 2d be 3c 5b 63 94 ba
       0.014815569 0.0316062 0.02321482 -0.0011321114
000200 a5 48 ec 3c 87 ed 83 bc 90 66 fe bc 5c c7 d0 3c
       0.028843233 -0.016104473 -0.031054765 0.025485687
000210 3c 01 e2 3c 44 ec 34 bc 91 1a 5a 3c 55 a9 35 3b
       0.02758848 -0.011042658 0.013311998 0.0027719338
000220 ab 52 5b 3c 51 09 28 bd b5 40 9b 3c f2 cb a4 bb
       0.013386409 -0.04102451 0.018951753 -0.005029195
000230 df cd 4f bc cc 74 6f ba 76 f7 21 3d 02 4e 95 bc
       -0.012683361 -0.00091345306 0.039542638 -0.018225674
000240 72 50 d9 bc d5 71 03 bd 45 30 a8 3b 94 b0 10 bd
       -0.026527617 -0.03209098 0.0051327073 -0.035324648
000250 9c 8f 30 bc ff 3b ab bc 27 f4 05 3c 1e 25 c9 3c
       -0.010776427 -0.020902632 0.008175886 0.024553832
000260 e0 78 7b 3c 85 9b 2b ba 2b 73 ea bc e8 26 33 3d
       0.015348643 -0.00065463065 -0.02861937 0.043738276
000270 de d3 64 bd 9f f6 3c bd b6 40 d8 bc 22 ab 10 bd
       -0.055866115 -0.046133634 -0.026398044 -0.035319455
000280 bf 71 7d bc 4a 91 95 3c 06 9f 38 bd a9 68 14 b9
       -0.015469014 0.018257756 -0.04507353 -0.00014153369
000290 dd f9 86 3c 02 fb 12 3d bc 77 93 3c b3 8f ab bc
       0.016476566 0.03588391 0.01800143 -0.020942545
0002a0 89 7f ec 3c e9 3e a3 3c 47 c3 88 ba f3 3f 0e 3d
       0.028869407 0.019927459 -0.0010434174 0.034728955
0002b0 b6 86 0c 3c 81 c9 27 bd 9a 4b 30 bd 55 ee de bb
       0.008577039 -0.040963653 -0.04304085 -0.0068033137
0002c0 f9 92 a5 ba 78 ac 23 3c 03 8a 11 bd 71 e7 c5 bc
       -0.0012632302 0.00998985 -0.03553201 -0.024158211
0002d0 b9 ba ad 3b 01 a0 47 bd f6 bc 38 3c 4a 27 c6 3b
       0.0053018 -0.048736576 0.011275521 0.006047164
0002e0 d9 dc 54 bd 83 64 53 bd 68 f9 09 3d e0 a7 07 bd
       -0.05196843 -0.051609527 0.033685118 -0.033119082
0002f0 36 f7 9f ba ed b6 e3 bb 72 76 35 3d ab df 82 3c
       -0.0012204412 -0.0069492967 0.04430241 0.015975794
000300 a9 fa 08 3d 05 22 2c bd f7 14 8e 3c 94 2a b7 bc
       0.033442173 -0.04202463 0.017343981 -0.02235917
000310 31 e2 9e 3b b6 0a db 3c af 88 39 bd 55 99 93 3c
       0.0048487415 0.026738506 -0.045296367 0.01801745
000320 00 fa dc bc 20 04 3a bc 58 50 15 bc 6a 1e 89 3c
       -0.026974678 -0.011353523 -0.009113394 0.016738135
000330 a3 46 6c bc 40 5d 2d bd 05 14 f6 bb 9c 05 ec bc
       -0.014421138 -0.04232526 -0.0075097107 -0.028811269
000340 fa 94 2b bc 8e 37 78 3b 32 f9 9a 3b ea 3e 37 bd
       -0.0104725305 0.003787491 0.0047294134 -0.044737734
000350 01 8c a8 3a 52 13 6d bc 8b e2 0f 3d ca 0d 84 bc
       0.0012859107 -0.014469938 0.035128158 -0.016119856
000360 41 49 b7 3c 30 c3 42 bd 3d 95 a4 3c 72 20 bd 3b
       0.022373797 -0.047549427 0.020090694 0.00577169
000370 07 c7 ac bb 15 61 3b bd 3a 6a 34 bd c7 4f d4 3c
       -0.0052727493 -0.04574688 -0.044046618 0.025916947
000380 eb 8c 1d 3d ad 4b 48 3c fe 9f b6 3b 1b 73 9b ba
       0.038464468 0.012225074 0.005573272 -0.0011859866
000390 0a 87 24 bd 74 a0 db 3c 2e f8 d7 bc 23 bc 17 3d
       -0.040167846 0.026809908 -0.026363458 0.037044656
0003a0 6a bc c1 3c 27 84 bf bc 49 13 83 3c 16 2f 08 3d
       0.023649413 -0.023378445 0.016000407 0.03324803
0003b0 f5 1b b9 bc 00 90 20 bd 89 13 0b 3d e7 56 b9 bc
       -0.022596339 -0.03919983 0.033954177 -0.022624446
0003c0 26 c5 f0 bc 33 12 3d 3c 68 eb b6 bc b4 10 04 bd
       -0.029390883 0.011539984 -0.022329047 -0.03224249
0003d0 ee 05 1d bd 19 72 54 bc 22 3d 91 bc 3e 37 07 3d
       -0.038335733 -0.012966656 -0.017729346 0.033011667
0003e0 84 5f df 3c 43 a2 c0 3c f7 97 11 bd 05 f3 45 bd
       0.027267225 0.023514872 -0.035545316 -0.048327465
0003f0 38 63 33 3b 91 56 35 3d 9f 38 4c 3c 1d dd dc 3b
       0.0027372371 0.04427201 0.012464671 0.006740226

encoder.2.0.bias f4 [64]
000000 3a 1d 15 3c 3b 84 8d 3c c6 33 18 3c 01 97 88 3c
       0.009101206 0.017274966 0.0092896875 0.016673567
000010 40 fd 30 3c 32 26 40 3c 59 c7 61 3c 63 77 9b bc
       0.010802567 0.0117278565 0.013780438 -0.018977826
000020 25 fc e0 3c ce 1c 0d 3d 26 d6 8a bc a2 c8 9f 3a
       0.027463982 0.0344513 -0.016947817 0.001219053
000030 c0 75 4e 3d 9d d5 88 3b ef 46 7e bc e6 5a 44 3c
       0.050405264 0.0041758553 -0.015519842 0.0119845625
000040 26 82 b6 3c aa 46 1b bd 05 d0 37 bc 94 c8 02 bd
       0.022278856 -0.037909187 -0.011219029 -0.031929567
000050 05 f6 a4 3b 0b 9c 27 bd 94 7e c0 3c 4c 1a 18 bc
       0.0050342106 -0.0409203 0.023497857 -0.009283613
000060 7f 56 7e bc f9 fc 00 3c a9 19 fb bc 87 e7 12 3d
       -0.015523552 0.007872813 -0.030651884 0.035865333
000070 2b 02 2d bd a8 d1 07 3c 38 5a 01 bd a9 a6 df bc
       -0.042238396 0.008289732 -0.03158018 -0.02730115
000080 cb c2 b5 3c d9 84 da 3c 48 a2 bf bc e8 1f 7e bc
       0.022187611 0.026674675 -0.023392811 -0.015510537
000090 2a 58 b7 3c ee 03 54 3d 29 30 e4 bc 28 37 8d bc
       0.022380907 0.05176156 -0.027854996 -0.017238215
0000a0 56 a2 f7 3b 8f bf 0c bc 43 56 40 bb 4b 79 51 bc
       0.0075571937 -0.008590593 -0.002934829 -0.012785266
0000b0 db be 1f 3b 47 1c 9f 3c 21 fd 94 bc 81 db f9 3c
       0.0024375233 0.019422663 -0.018187108 0.030500175
0000c0 f6 d8 b6 bb c1 51 b7 bb 56 a5 00 bd 71 1c be bb
       -0.005580063 -0.0055944626 -0.031407677 -0.0058017303
0000d0 7f 79 10 bd f5 31 3f 3d 1d ad 06 3d ef 8f f8 bc
       -0.035272118 0.046678502 0.032879937 -0.03034207
0000e0 a1 b4 28 3b 1b fc db 3b 86 f1 b9 bc e5 63 5c 3c
       0.002574243 0.006713403 -0.022698175 0.013451551
0000f0 9c 2e ad 3c 58 53 06 bd 7e 15 9f 3b ce ae eb bc
       0.02114039 -0.032794327 0.004854857 -0.028769877

encoder.2.1.weight f4 [64]
000000 c0 06 7e 3f 46 d2 80 3f f8 e4 7c 3f fa a8 7a 3f
       0.9922905 1.006417 0.9878688 0.9791409
000010 27 4d 7e 3f 3b 2f 80 3f 0e f5 7e 3f 0c a2 7d 3f
       0.99336475 1.0014414 0.99592674 0.9907539
000020 7a dd 7d 3f 37 3c 7d 3f 62 c5 7e 3f 31 a8 7d 3f
       0.9916607 0.98920006 0.9951993 0.99084765
000030 60 45 84 3f bd 3a 7e 3f e1 36 7f 3f 15 4d 81 3f
       1.0333672 0.9930838 0.99693114 1.0101649
000040 2f de 80 3f 58 51 7f 3f 14 79 7f 3f a5 e4 80 3f
       1.0067805 0.99733496 0.99794126 1.0069777
000050 31 1b 7c 3f 43 f4 81 3f 91 9c 82 3f 04 94 7e 3f
       0.9847899 1.0152668 1.020403 0.99444604
000060 0e f1 7c 3f bc a2 7f 3f da 77 7f 3f 11 f9 83 3f
       0.9880532 0.9985769 0.99792254 1.0310384
000070 de 76 7e 3f 56 b9 7e 3f 23 d3 7f 3f 74 8b 7f 3f
       0.99400127 0.9950155 0.99931544 0.99822164
000080 7a af 81 3f d5 41 80 3f 67 d6 7f 3f d4 00 83 3f
       1.0131676 1.002009 0.99936527 1.0234628
000090 6e c5 7d 3f dc 6c 7d 3f 49 77 7e 3f f4 95 80 3f
       0.9912938 0.9899423 0.99400765 1.0045762
0000a0 99 86 80 3f 25 45 7f 3f 8c 45 80 3f 47 eb 82 3f
       1.0041076 0.9971488 1.0021224 1.0228051
0000b0 a0 7d 80 3f f3 77 80 3f f8 a3 7f 3f 96 a6 7f 3f
       1.0038338 1.0036606 0.9985957 0.99863565
0000c0 11 cf 7e 3f 8c 0f 7f 3f 21 b4 82 3f 8f e0 81 3f
       0.9953471 0.996331 1.0211221 1.0146655
0000d0 ca 13 82 3f 32 b7 81 3f d5 a8 7f 3f 45 08 81 3f
       1.0162289 1.0134032 0.9986699 1.0080649
0000e0 72 04 81 3f 11 c1 7e 3f e7 fc 7d 3f ed 68 80 3f
       1.0079482 0.99513346 0.99214023 1.0032021
0000f0 d9 29 80 3f 86 ba 80 3f 54 fd 7e 3f b2 df 7e 3f
       1.0012771 1.0056922 0.996053 0.9956008

encoder.2.1.bias f4 [64]
000000 1c 1e 53 3c 9c 68 3d 3c ac 17 95 b9 dd 3b 18 bc
       0.012885597 0.011560585 -0.00028437132 -0.009291616
000010 04 b5 d6 3b 6e aa b5 3b 98 dd 6a 38 68 d9 a0 bb
       0.0065523405 0.0055439984 5.5996323e-05 -0.0049087293
000020 e6 13 06 3a ad 7f 20 bc f5 b2 ed bb 29 11 1f bc
       0.00051146594 -0.009796065 -0.0072539994 -0.009708681
000030 85 d4 49 bc ee 0f 5f bc 00 66 e3 3b b5 8f e9 3c
       -0.012318735 -0.013614638 0.0069396496 0.028510908
000040 5b 54 03 3c 3f cd 1c bb cb 8e 39 3b 61 d1 08 ba
       0.008015717 -0.0023926047 0.002831387 -0.0005219188
000050 07 3c e3 bc f0 99 ee 3c 4c 57 a4 3c 36 6f 87 3b
       -0.027738584 0.029126137 0.020061158 0.0041331304
000060 4c 59 3f 3c 8a c0 99 3a 95 23 04 bc 75 c5 3c bc
       0.011679005 0.0011730355 -0.008065124 -0.011521687
000070 46 bf 9d bb a2 fb 5e 3c 3f 0a bc 3a b6 ed e3 bb
       -0.0048140613 0.013609799 0.0014346315 -0.0069558276
000080 a4 e5 3a bc d0 7d 6a 3a 2d a9 cc 3b 9f b7 ff 3b
       -0.01140729 0.0008945139 0.0062457533 0.0078038718
000090 a8 39 77 3c f0 f1 b5 bb c4 c7 48 bb 11 23 25 bc
       0.01508943 -0.005552523 -0.0030636648 -0.010079161
0000a0 c5 87 47 3c 64 7e b3 bb fb cd a5 3b 1d af 63 3c
       0.012178366 -0.0054777134 0.005059955 0.013896731
0000b0 23 81 8b 3c 6a ed 8c bc b8 f2 5e 3b 5f 01 d3 bb
       0.01702935 -0.017203052 0.0034019183 -0.0064393724
0000c0 fc f8 c8 3b 68 62 8f bb 2a bf 4e 3c 14 82 d8 3c
       0.006133197 -0.0043757446 0.012618819 0.026429214
0000d0 6e b1 71 bb b4 53 93 3c 14 b1 c3 3c d3 de ea 3c
       -0.0036879438 0.017984249 0.023888148 0.028670704
0000e0 2f a9 d4 3a 1e fd 34 3c 91 b2 3b bc 29 68 41 3c
       0.0016224737 0.011046676 -0.011456148 0.011804619
0000f0 70 94 5b 3c aa 82 f2 3c 54 bb 1b 3c 0c cc 03 3c
       0.0134020895 0.029603321 0.009505112 0.008044254

encoder.2.1.running_mean f4 [64]
000000 5a ff 94 bf 53 98 21 3f c0 2b cc bf 54 68 9f bd
       -1.1640427 0.63123053 -1.5950851 -0.07783571
000010 e0 72 c8 bf 0e 78 ef bf ce b8 af bf 5b ae e4 bf
       -1.5660057 -1.8708513 -1.3728273 -1.7865709
000020 f3 a0 b0 3d 53 a2 f7 3f ed 5b aa be 14 55 9e 3f
       0.086244486 1.9346412 -0.3327326 1.2369714
000030 a4 44 bb bf a9 bd 26 3f 9f 0a c2 3e 15 77 62 bf
       -1.4630322 0.6513315 0.37898728 -0.88462955
000040 c7 db 50 bf 95 b1 5b 3f 92 ac c8 bf c6 41 08 bf
       -0.81585354 0.85817844 -1.5677664 -0.5322536
000050 c3 1a a9 3f 00 8e 45 bf e2 bb c6 bf 2e 8b 2b bf
       1.3211292 -0.771698 -1.5526087 -0.67009246
000060 e0 29 45 bd bf a7 c0 3e e2 d3 b1 3f 3d f7 c4 bf
       -0.04813564 0.3762798 1.3892787 -1.5387951
000070 ea 90 a4 bf 8f e6 9a be 8e 1b 26 3e a8 00 4e be
       -1.2856724 -0.30254027 0.16221449 -0.20117438
000080 6c 1d b8 bf 07 ed 19 3f 9b bd d9 3f 4b 95 e2 bd
       -1.4383979 0.601273 1.7010988 -0.110636316
000090 3b b3 78 bf 61 c5 73 be 7b a7 d8 3f 42 b0 d1 bf
       -0.97148484 -0.23805763 1.6926111 -1.6381915
0000a0 5d ff 55 bf 20 4d 77 3f 7a b8 bc 3f 9d 2a 00 c0
       -0.8359278 0.9660206 1.4743798 -2.002601
0000b0 ee f8 3f bf 01 14 8a bf b5 39 61 bf 8e ff 5a be
       -0.7498921 -1.0787355 -0.8797868 -0.21386549
0000c0 60 5b 63 3f 8d d7 e6 3f 76 b1 28 bf f8 df 0a bf
       0.888113 1.8034531 -0.65895784 -0.54248
0000d0 fa 27 c5 bf e9 41 ec 3e eb 5f 12 3e cd 50 50 be
       -1.5402825 0.46144035 0.14294402 -0.20343323
0000e0 85 4d 4b 3e 3c ed a2 bf ad 58 e2 3f f5 42 0b bf
       0.1985379 -1.2728648 1.7683312 -0.54399043
0000f0 65 98 e8 bd bb 86 98 3d 17 e9 20 c0 4e 62 ce bf
       -0.11357192 0.07447573 -2.5142267 -1.612375

encoder.2.1.running_var f4 [64]
000000 ee 1e ba 3e 71 95 0e 3f 29 f3 1e 3f 8c 0a ce 3e
       0.36351722 0.5569678 0.6208978 0.40242422
000010 91 a8 85 3f b5 37 5c 3f 96 df ae 3f 2e 22 17 3f
       1.0442067 0.860225 1.3661983 0.5903653
000020 6e e9 c7 3e 29 10 b9 3f 90 8d 95 3e 13 4b 40 3f
       0.3904528 1.4458057 0.29209566 0.75114554
000030 9b 1f 2d 3f ea f9 b7 3e f2 3f 8e 3e a4 bf a6 3e
       0.6762635 0.35932857 0.2778316 0.32568085
000040 11 9b b1 3e 67 f5 18 3f 43 6c 18 3f 1c aa a0 3e
       0.3468862 0.59749454 0.59540194 0.31379783
000050 40 c0 d5 3e 85 b7 d7 3e 2d 1e 5c 3e 72 a0 38 3e
       0.41748238 0.42132202 0.21495886 0.18029955
000060 79 43 62 3e fc 17 7a 3e 6f 96 66 3f 2c 2c a8 3e
       0.22096051 0.24423212 0.90073293 0.328462
000070 00 95 8c 3e 73 b7 4c 3e 73 ad c2 3e f7 6d 6e 3e
       0.27457428 0.19991855 0.38022956 0.23284136
000080 c8 87 b7 3e 84 4b 44 3f 92 3a c4 3e 97 8f a2 3e
       0.3584578 0.7667773 0.38325936 0.31750175
000090 e4 cd 76 3e 5a 39 4b 3f e0 6d e1 3e f6 de c3 3e
       0.24101979 0.79384387 0.4402914 0.38256043
0000a0 66 cc cd 3e 2c 5e 78 3e a8 74 80 3f a0 59 c9 3e
       0.40195006 0.24254674 1.0035601 0.3932619
0000b0 a7 6a ae 3e 3c c8 c7 3e 4e 1d f7 3e 22 14 31 3e
       0.34065744 0.39019954 0.48264545 0.17292836
0000c0 16 f4 3e 3e 7d ce 59 3f 7a 23 9d 3e 3d 68 0d 3f
       0.18647799 0.850807 0.3069113 0.5523718
0000d0 10 49 cd 3e 40 c5 8f 3e ae 7f 87 3e 11 15 17 3f
       0.40094805 0.28080177 0.264646 0.5901652
0000e0 78 b0 d9 3e 5f 2c 49 3f 5f 56 8d 3f 66 57 51 3e
       0.42517447 0.7858333 1.1041983 0.20443496
0000f0 11 f5 98 3e 57 02 7b 3e ae 45 3c 3f c6 7e bc 3e
       0.2987447 0.24512611 0.7354382 0.3681547
